…
2023-11-16 19:05:48,495 - seen_tst_taglist: 504
2023-11-16 19:05:55,212 - trnID: 2x10_USUPtr_NOUN_512k_zLEMMA16_zTAGNH32_decnh256_kl0.2_epc10_strt5_decdo0.2_inpemb64_bsize64
2023-11-16 19:05:55,213 - batchsize: 64
2023-11-16 19:05:55,214 - epochs: 200
2023-11-16 19:05:55,214 - lr: 0.00050
2023-11-16 19:05:55,215 - KL_WEIGHT: 0.20000
2023-11-16 19:05:55,216 - opt: Adam (
Parameter Group 0
    amsgrad: False
    betas: (0.5, 0.999)
    capturable: False
    eps: 1e-08
    foreach: None
    lr: 0.0005
    maximize: False
    weight_decay: 0
)
2023-11-16 19:05:55,217 - VQVAE(
  (encoder): Encoder_GRU_VQVAE(
    (layers): ModuleList(
      (0): Embedding(63, 64)
      (1): Dropout(p=0.0, inplace=False)
      (2): GRU(64, 256, batch_first=True, bidirectional=True)
    )
  )
  (z_linears): ModuleList(
    (0): Linear(in_features=512, out_features=32, bias=True)
    (1): Linear(in_features=512, out_features=32, bias=True)
  )
  (quantizers): ModuleList(
    (0): Quantizer(
      (embeddings): Embedding(10, 32)
    )
    (1): Quantizer(
      (embeddings): Embedding(10, 32)
    )
  )
  (z_lemma_mu): Linear(in_features=512, out_features=16, bias=True)
  (z_lemma_logvar): Linear(in_features=512, out_features=16, bias=True)
  (up_from_z_layer): Linear(in_features=48, out_features=256, bias=True)
  (decoder): Decoder_GRU_VQVAE(
    (layers): ModuleList(
      (0): Embedding(63, 64)
      (1): Dropout(p=0.2, inplace=False)
      (2): GRU(112, 256, batch_first=True)
      (3): Linear(in_features=256, out_features=63, bias=True)
    )
    (loss): CrossEntropyLoss()
  )
)
2023-11-16 19:05:55,338 - trnsize: 124033
2023-11-16 19:05:55,339 - devsize: 538
2023-11-16 19:05:55,340 - tstsize: 538
2023-11-16 19:05:55,341 - 
2023-11-16 19:05:55,341 - #epc: 0
2023-11-16 19:05:55,343 - epc:0, epc_KL:  0.000000
2023-11-16 19:07:15,365 - exact_match_tst_copy_acc: 0.507
2023-11-16 19:07:16,748 - TRN || epcloss: 0.9427
…
