…
2024-01-17 10:43:44,801 - seen_tst_lemma: 1446
2024-01-17 10:43:44,801 - seen_tst_taglist: 1446
2024-01-17 10:44:21,602 - trnID: run1_6x8_zLEM150_zTAG200_decnh256_klmax0.2_decdo0.4_inpemb300_bsize32_mintau0.5_TAU_soft
2024-01-17 10:44:21,603 - batchsize: 32
2024-01-17 10:44:21,604 - epochs: 30
2024-01-17 10:44:21,605 - lr: 0.00050
2024-01-17 10:44:21,606 - KL_MAX: 0.20000
2024-01-17 10:44:21,607 - opt: Adam (
Parameter Group 0
    amsgrad: False
    betas: (0.5, 0.999)
    capturable: False
    eps: 1e-08
    foreach: None
    lr: 0.0005
    maximize: False
    weight_decay: 0
)
2024-01-17 10:44:21,609 - MSVAE(
  (embed): Embedding(39, 300)
  (z_to_dec): Linear(in_features=150, out_features=256, bias=True)
  (tag_to_dec): Linear(in_features=200, out_features=256, bias=True)
  (encoder): MSVED_Encoder(
    (embed): Embedding(39, 300)
    (gru): GRU(300, 256, batch_first=True, bidirectional=True)
    (dropout_in): Dropout(p=0.0, inplace=False)
    (linear): Linear(in_features=512, out_features=300, bias=True)
  )
  (decoder): MSVED_Decoder(
    (char_embed): Embedding(39, 300)
    (dropout_in): Dropout(p=0.4, inplace=False)
    (gru): GRU(650, 256, batch_first=True)
    (attn): Linear(in_features=706, out_features=6, bias=True)
    (attn_combine): Linear(in_features=650, out_features=650, bias=True)
    (pred_linear): Linear(in_features=256, out_features=39, bias=True)
    (loss): CrossEntropyLoss()
  )
  (tag_embeddings): ModuleList(
    (0): Embedding(8, 200)
    (1): Embedding(8, 200)
    (2): Embedding(8, 200)
    (3): Embedding(8, 200)
    (4): Embedding(8, 200)
    (5): Embedding(8, 200)
  )
  (classifiers): ModuleList(
    (0): Linear(in_features=512, out_features=8, bias=True)
    (1): Linear(in_features=512, out_features=8, bias=True)
    (2): Linear(in_features=512, out_features=8, bias=True)
    (3): Linear(in_features=512, out_features=8, bias=True)
    (4): Linear(in_features=512, out_features=8, bias=True)
    (5): Linear(in_features=512, out_features=8, bias=True)
  )
)
2024-01-17 10:44:21,940 - trnsize: 404897
2024-01-17 10:44:21,941 - devsize: 1446
2024-01-17 10:44:21,942 - tstsize: 1446
2024-01-17 10:44:21,942 - 
2024-01-17 10:44:21,943 - #epc: 0
2024-01-17 10:51:14,304 - epoch: 0, kl_weight: 0.07, tmp: 0.70
2024-01-17 10:51:14,305 - Trn--- loss: 7.4464,  labeled_recon_loss: 0.3114, labeled_kl_loss: 74.0660, labeled_reinflect_recon_acc: 0.8984
…
