…
2023-11-19 22:15:24,282 - trnID: noshuffled_BITrue_2x10_UtrNOUN_zLEM32_zTAG64_decnh512_kl1.0_epc10_strt5_decdo0.2_inpemb128_bsize128
2023-11-19 22:15:24,283 - batchsize: 128
2023-11-19 22:15:24,284 - epochs: 200
2023-11-19 22:15:24,284 - lr: 0.00050
2023-11-19 22:15:24,285 - KL_WEIGHT: 1.00000
2023-11-19 22:15:24,285 - opt: Adam (
Parameter Group 0
    amsgrad: False
    betas: (0.5, 0.999)
    capturable: False
    eps: 1e-08
    foreach: None
    lr: 0.0005
    maximize: False
    weight_decay: 0
)
2023-11-19 22:15:24,286 - VQVAE(
  (encoder): Encoder_GRU_VQVAE(
    (layers): ModuleList(
      (0): Embedding(63, 128)
      (1): Dropout(p=0.0, inplace=False)
      (2): GRU(128, 256, batch_first=True, bidirectional=True)
    )
  )
  (z_linears): ModuleList(
    (0): Linear(in_features=256, out_features=64, bias=True)
    (1): Linear(in_features=256, out_features=64, bias=True)
  )
  (quantizers): ModuleList(
    (0): Quantizer(
      (embeddings): Embedding(10, 64)
    )
    (1): Quantizer(
      (embeddings): Embedding(10, 64)
    )
  )
  (z_lemma_mu): Linear(in_features=256, out_features=32, bias=True)
  (z_lemma_logvar): Linear(in_features=256, out_features=32, bias=True)
  (up_from_z_layer): Linear(in_features=96, out_features=512, bias=True)
  (decoder): Decoder_GRU_VQVAE(
    (layers): ModuleList(
      (0): Embedding(63, 128)
      (1): Dropout(p=0.2, inplace=False)
      (2): GRU(224, 512, batch_first=True)
      (3): Linear(in_features=512, out_features=63, bias=True)
    )
    (loss): CrossEntropyLoss()
  )
)
2023-11-19 22:15:24,356 - trnsize: 124033
2023-11-19 22:15:24,357 - devsize: 538
2023-11-19 22:15:24,358 - tstsize: 538
2023-11-19 22:15:24,359 - 
2023-11-19 22:15:24,359 - #epc: 0
2023-11-19 22:15:24,361 - epc:0, epc_KL:  0.000000
2023-11-19 22:16:42,980 - exact_match_tst_copy_acc: 0.124
2023-11-19 22:16:44,634 - TRN || epcloss: 1.3200
…
