…
2024-01-16 21:28:16,669 - seen_tst_lemma: 1446
2024-01-16 21:28:16,670 - seen_tst_taglist: 1446
2024-01-16 21:28:56,517 - trnID: run1_8x8_zLEM100_zTAG128_decnh256_klmax1.0_decdo0.5_inpemb128_bsize32_mintau0.5_TAU_soft
2024-01-16 21:28:56,519 - batchsize: 32
2024-01-16 21:28:56,520 - epochs: 30
2024-01-16 21:28:56,521 - lr: 0.00050
2024-01-16 21:28:56,522 - KL_MAX: 1.00000
2024-01-16 21:28:56,522 - opt: Adam (
Parameter Group 0
    amsgrad: False
    betas: (0.5, 0.999)
    capturable: False
    eps: 1e-08
    foreach: None
    lr: 0.0005
    maximize: False
    weight_decay: 0
)
2024-01-16 21:28:56,524 - MSVAE(
  (embed): Embedding(39, 128)
  (z_to_dec): Linear(in_features=100, out_features=256, bias=True)
  (tag_to_dec): Linear(in_features=128, out_features=256, bias=True)
  (encoder): MSVED_Encoder(
    (embed): Embedding(39, 128)
    (gru): GRU(128, 256, batch_first=True, bidirectional=True)
    (dropout_in): Dropout(p=0.0, inplace=False)
    (linear): Linear(in_features=512, out_features=200, bias=True)
  )
  (decoder): MSVED_Decoder(
    (char_embed): Embedding(39, 128)
    (dropout_in): Dropout(p=0.5, inplace=False)
    (gru): GRU(356, 256, batch_first=True)
    (attn): Linear(in_features=484, out_features=8, bias=True)
    (attn_combine): Linear(in_features=356, out_features=356, bias=True)
    (pred_linear): Linear(in_features=256, out_features=39, bias=True)
    (loss): CrossEntropyLoss()
  )
  (tag_embeddings): ModuleList(
    (0): Embedding(8, 128)
    (1): Embedding(8, 128)
    (2): Embedding(8, 128)
    (3): Embedding(8, 128)
    (4): Embedding(8, 128)
    (5): Embedding(8, 128)
    (6): Embedding(8, 128)
    (7): Embedding(8, 128)
  )
  (classifiers): ModuleList(
    (0): Linear(in_features=512, out_features=8, bias=True)
    (1): Linear(in_features=512, out_features=8, bias=True)
    (2): Linear(in_features=512, out_features=8, bias=True)
    (3): Linear(in_features=512, out_features=8, bias=True)
    (4): Linear(in_features=512, out_features=8, bias=True)
    (5): Linear(in_features=512, out_features=8, bias=True)
    (6): Linear(in_features=512, out_features=8, bias=True)
    (7): Linear(in_features=512, out_features=8, bias=True)
  )
)
2024-01-16 21:28:56,748 - trnsize: 404897
2024-01-16 21:28:56,749 - devsize: 1446
2024-01-16 21:28:56,750 - tstsize: 1446
2024-01-16 21:28:56,751 - 
2024-01-16 21:28:56,752 - #epc: 0
2024-01-16 21:36:48,999 - epoch: 0, kl_weight: 0.07, tmp: 0.70
2024-01-16 21:36:49,001 - Trn--- loss: 11.0824,  labeled_recon_loss: 0.5035, labeled_kl_loss: 62.9521, labeled_reinflect_recon_acc: 0.8276
…
