…
2023-11-17 23:57:53,839 - seen_tst_taglist: 504
2023-11-17 23:58:00,394 - trnID: silv2True_2x10_UtrNOUN_zLEM64_zTAG128_decnh256_kl0.1_epc10_strt5_decdo0.2_inpemb64_bsize64
2023-11-17 23:58:00,394 - batchsize: 64
2023-11-17 23:58:00,396 - epochs: 200
2023-11-17 23:58:00,396 - lr: 0.00050
2023-11-17 23:58:00,397 - KL_WEIGHT: 0.10000
2023-11-17 23:58:00,397 - opt: Adam (
Parameter Group 0
    amsgrad: False
    betas: (0.5, 0.999)
    capturable: False
    eps: 1e-08
    foreach: None
    lr: 0.0005
    maximize: False
    weight_decay: 0
)
2023-11-17 23:58:00,398 - VQVAE(
  (encoder): Encoder_GRU_VQVAE(
    (layers): ModuleList(
      (0): Embedding(63, 64)
      (1): Dropout(p=0.0, inplace=False)
      (2): GRU(64, 256, batch_first=True, bidirectional=True)
    )
  )
  (z_linears): ModuleList(
    (0): Linear(in_features=256, out_features=128, bias=True)
    (1): Linear(in_features=256, out_features=128, bias=True)
  )
  (quantizers): ModuleList(
    (0): Quantizer(
      (embeddings): Embedding(10, 128)
    )
    (1): Quantizer(
      (embeddings): Embedding(10, 128)
    )
  )
  (z_lemma_mu): Linear(in_features=256, out_features=64, bias=True)
  (z_lemma_logvar): Linear(in_features=256, out_features=64, bias=True)
  (up_from_z_layer): Linear(in_features=192, out_features=256, bias=True)
  (decoder): Decoder_GRU_VQVAE(
    (layers): ModuleList(
      (0): Embedding(63, 64)
      (1): Dropout(p=0.2, inplace=False)
      (2): GRU(256, 256, batch_first=True)
      (3): Linear(in_features=256, out_features=63, bias=True)
    )
    (loss): CrossEntropyLoss()
  )
)
2023-11-17 23:58:00,567 - trnsize: 124033
2023-11-17 23:58:00,568 - devsize: 538
2023-11-17 23:58:00,569 - tstsize: 538
2023-11-17 23:58:00,569 - 
2023-11-17 23:58:00,570 - #epc: 0
2023-11-17 23:58:00,572 - epc:0, epc_KL:  0.000000
2023-11-17 23:59:20,794 - exact_match_tst_copy_acc: 0.232
2023-11-17 23:59:22,170 - TRN || epcloss: 1.1961
…
