…
2023-11-19 22:18:40,420 - trnID: TEST_BITrue_2x10_UtrNOUN_zLEM100_zTAG129_decnh512_kl1.0_epc10_strt5_decdo0.2_inpemb128_bsize128
2023-11-19 22:18:40,421 - batchsize: 128
2023-11-19 22:18:40,421 - epochs: 200
2023-11-19 22:18:40,422 - lr: 0.00050
2023-11-19 22:18:40,423 - KL_WEIGHT: 1.00000
2023-11-19 22:18:40,423 - opt: Adam (
Parameter Group 0
    amsgrad: False
    betas: (0.5, 0.999)
    capturable: False
    eps: 1e-08
    foreach: None
    lr: 0.0005
    maximize: False
    weight_decay: 0
)
2023-11-19 22:18:40,424 - VQVAE(
  (encoder): Encoder_GRU_VQVAE(
    (layers): ModuleList(
      (0): Embedding(63, 128)
      (1): Dropout(p=0.0, inplace=False)
      (2): GRU(128, 256, batch_first=True, bidirectional=True)
    )
  )
  (z_linears): ModuleList(
    (0): Linear(in_features=512, out_features=129, bias=True)
    (1): Linear(in_features=512, out_features=129, bias=True)
  )
  (quantizers): ModuleList(
    (0): Quantizer(
      (embeddings): Embedding(10, 129)
    )
    (1): Quantizer(
      (embeddings): Embedding(10, 129)
    )
  )
  (z_lemma_mu): Linear(in_features=512, out_features=100, bias=True)
  (z_lemma_logvar): Linear(in_features=512, out_features=100, bias=True)
  (up_from_z_layer): Linear(in_features=229, out_features=512, bias=True)
  (decoder): Decoder_GRU_VQVAE(
    (layers): ModuleList(
      (0): Embedding(63, 128)
      (1): Dropout(p=0.2, inplace=False)
      (2): GRU(357, 512, batch_first=True)
      (3): Linear(in_features=512, out_features=63, bias=True)
    )
    (loss): CrossEntropyLoss()
  )
)
2023-11-19 22:18:40,561 - trnsize: 124033
2023-11-19 22:18:40,562 - devsize: 538
2023-11-19 22:18:40,563 - tstsize: 538
2023-11-19 22:18:40,564 - 
2023-11-19 22:18:40,565 - #epc: 0
2023-11-19 22:18:40,566 - epc:0, epc_KL:  0.000000
2023-11-19 22:19:41,883 - exact_match_tst_copy_acc: 0.363
2023-11-19 22:19:43,188 - TRN || epcloss: 1.0559
…
