…
2024-01-04 14:22:55,625 - seen_tst_lemma: 1446
2024-01-04 14:22:55,626 - seen_tst_taglist: 1446
2024-01-04 14:23:00,665 - trnID: run1_5x8_zLEM100_zTAG128_decnh1024_kl1.0_epc10_strt5_decdo0.2_inpemb128_bsize128
2024-01-04 14:23:00,666 - batchsize: 128
2024-01-04 14:23:00,667 - epochs: 50
2024-01-04 14:23:00,667 - lr: 0.00050
2024-01-04 14:23:00,669 - KL_WEIGHT: 1.00000
2024-01-04 14:23:00,669 - opt: Adam (
Parameter Group 0
    amsgrad: False
    betas: (0.5, 0.999)
    capturable: False
    eps: 1e-08
    foreach: None
    lr: 0.0005
    maximize: False
    weight_decay: 0
)
2024-01-04 14:23:00,670 - MSVED(
  (embed): Embedding(39, 300)
  (encoder): MSVED_Encoder(
    (embed): Embedding(39, 300)
    (gru): GRU(300, 256, batch_first=True, bidirectional=True)
    (dropout_in): Dropout(p=0.0, inplace=False)
    (linear): Linear(in_features=512, out_features=300, bias=True)
  )
  (decoder): MSVED_Decoder(
    (char_embed): Embedding(39, 300)
    (dropout_in): Dropout(p=0.5, inplace=False)
    (gru): GRU(650, 256, batch_first=True)
    (attn): Linear(in_features=706, out_features=11, bias=True)
    (attn_combine): Linear(in_features=650, out_features=650, bias=True)
    (pred_linear): Linear(in_features=256, out_features=39, bias=True)
    (loss): CrossEntropyLoss()
  )
  (z_to_dec): Linear(in_features=150, out_features=256, bias=True)
  (tag_to_dec): Linear(in_features=200, out_features=256, bias=True)
  (tag_embeddings): ModuleList(
    (0): Embedding(3, 200)
    (1): Embedding(5, 200)
    (2): Embedding(5, 200)
    (3): Embedding(8, 200)
    (4): Embedding(5, 200)
    (5): Embedding(4, 200)
    (6): Embedding(3, 200)
    (7): Embedding(4, 200)
    (8): Embedding(3, 200)
    (9): Embedding(5, 200)
    (10): Embedding(3, 200)
  )
)
2024-01-04 14:23:01,383 - trnsize: 100000
2024-01-04 14:23:01,384 - devsize: 1446
2024-01-04 14:23:01,384 - tstsize: 1446
2024-01-04 14:23:01,385 - 
2024-01-04 14:23:01,386 - #epc: 0
2024-01-04 14:23:01,387 - epc:0, epc_KL:  0.000000
2024-01-04 14:23:26,644 - epoch: 0, kl_weight: 0.00, tmp: 1.00
2024-01-04 14:23:26,645 - Trn--- loss: 31.2068, labeled_pred_loss: 0.0000, labeled_pred_acc: 0.0000, labeled_recon_loss: 1.6037, labeled_kl_loss: 205.9560, labeled_reinflect_recon_acc: 0.5131
…
