…
2023-11-17 22:11:27,598 - seen_tst_taglist: 504
2023-11-17 22:11:34,087 - trnID: BI_True_3x8_UtrNOUN_zLEM32_zTAG64_decnh256_kl0.1_epc10_strt5_decdo0.2_inpemb128_bsize64
2023-11-17 22:11:34,088 - batchsize: 64
2023-11-17 22:11:34,089 - epochs: 200
2023-11-17 22:11:34,090 - lr: 0.00050
2023-11-17 22:11:34,090 - KL_WEIGHT: 0.10000
2023-11-17 22:11:34,091 - opt: Adam (
Parameter Group 0
    amsgrad: False
    betas: (0.5, 0.999)
    capturable: False
    eps: 1e-08
    foreach: None
    lr: 0.0005
    maximize: False
    weight_decay: 0
)
2023-11-17 22:11:34,092 - VQVAE(
  (encoder): Encoder_GRU_VQVAE(
    (layers): ModuleList(
      (0): Embedding(63, 128)
      (1): Dropout(p=0.0, inplace=False)
      (2): GRU(128, 256, batch_first=True, bidirectional=True)
    )
  )
  (z_linears): ModuleList(
    (0): Linear(in_features=512, out_features=64, bias=True)
    (1): Linear(in_features=512, out_features=64, bias=True)
    (2): Linear(in_features=512, out_features=64, bias=True)
  )
  (quantizers): ModuleList(
    (0): Quantizer(
      (embeddings): Embedding(8, 64)
    )
    (1): Quantizer(
      (embeddings): Embedding(8, 64)
    )
    (2): Quantizer(
      (embeddings): Embedding(8, 64)
    )
  )
  (z_lemma_mu): Linear(in_features=512, out_features=32, bias=True)
  (z_lemma_logvar): Linear(in_features=512, out_features=32, bias=True)
  (up_from_z_layer): Linear(in_features=96, out_features=256, bias=True)
  (decoder): Decoder_GRU_VQVAE(
    (layers): ModuleList(
      (0): Embedding(63, 128)
      (1): Dropout(p=0.2, inplace=False)
      (2): GRU(224, 256, batch_first=True)
      (3): Linear(in_features=256, out_features=63, bias=True)
    )
    (loss): CrossEntropyLoss()
  )
)
2023-11-17 22:11:34,195 - trnsize: 124033
2023-11-17 22:11:34,196 - devsize: 538
2023-11-17 22:11:34,197 - tstsize: 538
2023-11-17 22:11:34,197 - 
2023-11-17 22:11:34,198 - #epc: 0
2023-11-17 22:11:34,200 - epc:0, epc_KL:  0.000000
2023-11-17 22:12:56,745 - exact_match_tst_copy_acc: 0.741
2023-11-17 22:12:58,155 - TRN || epcloss: 0.6864
…
