…
2024-01-05 15:28:16,931 - seen_tst_lemma: 1446
2024-01-05 15:28:16,931 - seen_tst_taglist: 1446
2024-01-05 15:28:21,982 - trnID: run1_4x8_zLEM100_zTAG128_decnh1024_kl1.0_epc10_strt5_decdo0.2_inpemb128_bsize128
2024-01-05 15:28:21,983 - batchsize: 128
2024-01-05 15:28:21,984 - epochs: 50
2024-01-05 15:28:21,984 - lr: 0.00050
2024-01-05 15:28:21,985 - KL_WEIGHT: 1.00000
2024-01-05 15:28:21,986 - opt: Adam (
Parameter Group 0
    amsgrad: False
    betas: (0.5, 0.999)
    capturable: False
    eps: 1e-08
    foreach: None
    lr: 0.0005
    maximize: False
    weight_decay: 0
)
2024-01-05 15:28:21,987 - MSVAE(
  (embed): Embedding(39, 300)
  (encoder): MSVED_Encoder(
    (embed): Embedding(39, 300)
    (gru): GRU(300, 256, batch_first=True, bidirectional=True)
    (dropout_in): Dropout(p=0.0, inplace=False)
    (linear): Linear(in_features=512, out_features=300, bias=True)
  )
  (decoder): MSVED_Decoder(
    (char_embed): Embedding(39, 300)
    (dropout_in): Dropout(p=0.5, inplace=False)
    (gru): GRU(650, 256, batch_first=True)
    (attn): Linear(in_features=706, out_features=11, bias=True)
    (attn_combine): Linear(in_features=650, out_features=650, bias=True)
    (pred_linear): Linear(in_features=256, out_features=39, bias=True)
    (loss): CrossEntropyLoss()
  )
  (z_to_dec): Linear(in_features=150, out_features=256, bias=True)
  (tag_to_dec): Linear(in_features=200, out_features=256, bias=True)
  (tag_embeddings): ModuleList(
    (0): Embedding(3, 200)
    (1): Embedding(5, 200)
    (2): Embedding(5, 200)
    (3): Embedding(8, 200)
    (4): Embedding(5, 200)
    (5): Embedding(4, 200)
    (6): Embedding(3, 200)
    (7): Embedding(4, 200)
    (8): Embedding(3, 200)
    (9): Embedding(5, 200)
    (10): Embedding(3, 200)
  )
  (classifiers): ModuleList(
    (0): Linear(in_features=512, out_features=3, bias=True)
    (1): Linear(in_features=512, out_features=5, bias=True)
    (2): Linear(in_features=512, out_features=5, bias=True)
    (3): Linear(in_features=512, out_features=8, bias=True)
    (4): Linear(in_features=512, out_features=5, bias=True)
    (5): Linear(in_features=512, out_features=4, bias=True)
    (6): Linear(in_features=512, out_features=3, bias=True)
    (7): Linear(in_features=512, out_features=4, bias=True)
    (8): Linear(in_features=512, out_features=3, bias=True)
    (9): Linear(in_features=512, out_features=5, bias=True)
    (10): Linear(in_features=512, out_features=3, bias=True)
  )
)
2024-01-05 15:28:22,238 - trnsize: 100000
2024-01-05 15:28:22,239 - devsize: 1446
2024-01-05 15:28:22,240 - tstsize: 1446
2024-01-05 15:28:22,240 - 
2024-01-05 15:28:22,241 - #epc: 0
2024-01-05 15:28:22,243 - epc:0, epc_KL:  0.000000
2024-01-05 15:28:55,318 - epoch: 0, kl_weight: 0.00, tmp: 1.00
2024-01-05 15:28:55,320 - Trn--- loss: 43.9745, labeled_pred_loss: 0.0069, labeled_pred_acc: 0.5706, labeled_recon_loss: 1.7764, labeled_kl_loss: 248.9925, labeled_reinflect_recon_acc: 0.4566
…
