…
2023-11-14 11:55:08,986 - trnID: 311_tur_mergedstdata_VERBS_256k_z128_dec_nh350_kl0.1_epc10_start5_dec_dropout0.2_input_emb_dim64_batchsize64
2023-11-14 11:55:08,987 - batchsize: 64
2023-11-14 11:55:08,988 - epochs: 300
2023-11-14 11:55:08,989 - lr: 0.00050
2023-11-14 11:55:08,989 - KL_WEIGHT: 0.10000
2023-11-14 11:55:08,990 - opt: Adam (
Parameter Group 0
    amsgrad: False
    betas: (0.5, 0.999)
    capturable: False
    eps: 1e-08
    foreach: None
    lr: 0.0005
    maximize: False
    weight_decay: 0
)
2023-11-14 11:55:08,991 - VQVAE(
  (encoder): Encoder_GRU_VQVAE(
    (layers): ModuleList(
      (0): Embedding(39, 64)
      (1): Dropout(p=0.0, inplace=False)
      (2): GRU(64, 256, batch_first=True, bidirectional=True)
    )
  )
  (z_linears): ModuleList(
    (0): Linear(in_features=512, out_features=128, bias=True)
    (1): Linear(in_features=512, out_features=128, bias=True)
    (2): Linear(in_features=512, out_features=128, bias=True)
    (3): Linear(in_features=512, out_features=128, bias=True)
    (4): Linear(in_features=512, out_features=128, bias=True)
    (5): Linear(in_features=512, out_features=128, bias=True)
    (6): Linear(in_features=512, out_features=128, bias=True)
    (7): Linear(in_features=512, out_features=128, bias=True)
    (8): Linear(in_features=512, out_features=128, bias=True)
    (9): Linear(in_features=512, out_features=128, bias=True)
    (10): Linear(in_features=512, out_features=128, bias=True)
  )
  (quantizers): ModuleList(
    (0): Quantizer(
      (embeddings): Embedding(3, 128)
    )
    (1): Quantizer(
      (embeddings): Embedding(4, 128)
    )
    (2): Quantizer(
      (embeddings): Embedding(5, 128)
    )
    (3): Quantizer(
      (embeddings): Embedding(4, 128)
    )
    (4): Quantizer(
      (embeddings): Embedding(5, 128)
    )
    (5): Quantizer(
      (embeddings): Embedding(3, 128)
    )
    (6): Quantizer(
      (embeddings): Embedding(5, 128)
    )
    (7): Quantizer(
      (embeddings): Embedding(8, 128)
    )
    (8): Quantizer(
      (embeddings): Embedding(3, 128)
    )
    (9): Quantizer(
      (embeddings): Embedding(5, 128)
    )
    (10): Quantizer(
      (embeddings): Embedding(3, 128)
    )
  )
  (z_lemma_mu): Linear(in_features=512, out_features=128, bias=True)
  (z_lemma_logvar): Linear(in_features=512, out_features=128, bias=True)
  (up_from_z_layer): Linear(in_features=128, out_features=350, bias=True)
  (decoder): Decoder_GRU_VQVAE(
    (layers): ModuleList(
      (0): Embedding(39, 64)
      (1): Dropout(p=0.2, inplace=False)
      (2): GRU(320, 350, batch_first=True)
      (3): Linear(in_features=350, out_features=39, bias=True)
    )
    (loss): CrossEntropyLoss()
  )
)
2023-11-14 11:55:09,205 - trnsize: 256000
2023-11-14 11:55:09,206 - devsize: 799
2023-11-14 11:55:09,207 - 
2023-11-14 11:55:09,207 - #epc: 0
2023-11-14 11:55:09,209 - epc:0, epc_KL:  0.000000
2023-11-14 11:56:36,214 - TRN || epcloss: 0.3120
2023-11-14 11:56:36,215 -     || Q: 0.4255
2023-11-14 11:56:36,216 -     || KL: 3.6928
…
