…
2023-11-17 21:54:33,261 - seen_tst_taglist: 504
2023-11-17 21:54:38,599 - trnID: BI_False_2x10_UtrNOUN_zLEM128_zTAG256_decnh256_kl0.1_epc10_strt5_decdo0.2_inpemb128_bsize256
2023-11-17 21:54:38,600 - batchsize: 256
2023-11-17 21:54:38,600 - epochs: 200
2023-11-17 21:54:38,601 - lr: 0.00050
2023-11-17 21:54:38,602 - KL_WEIGHT: 0.10000
2023-11-17 21:54:38,602 - opt: Adam (
Parameter Group 0
    amsgrad: False
    betas: (0.5, 0.999)
    capturable: False
    eps: 1e-08
    foreach: None
    lr: 0.0005
    maximize: False
    weight_decay: 0
)
2023-11-17 21:54:38,604 - VQVAE(
  (encoder): Encoder_GRU_VQVAE(
    (layers): ModuleList(
      (0): Embedding(63, 128)
      (1): Dropout(p=0.0, inplace=False)
      (2): GRU(128, 256, batch_first=True)
    )
  )
  (z_linears): ModuleList(
    (0): Linear(in_features=256, out_features=256, bias=True)
    (1): Linear(in_features=256, out_features=256, bias=True)
  )
  (quantizers): ModuleList(
    (0): Quantizer(
      (embeddings): Embedding(10, 256)
    )
    (1): Quantizer(
      (embeddings): Embedding(10, 256)
    )
  )
  (z_lemma_mu): Linear(in_features=256, out_features=128, bias=True)
  (z_lemma_logvar): Linear(in_features=256, out_features=128, bias=True)
  (up_from_z_layer): Linear(in_features=384, out_features=256, bias=True)
  (decoder): Decoder_GRU_VQVAE(
    (layers): ModuleList(
      (0): Embedding(63, 128)
      (1): Dropout(p=0.2, inplace=False)
      (2): GRU(512, 256, batch_first=True)
      (3): Linear(in_features=256, out_features=63, bias=True)
    )
    (loss): CrossEntropyLoss()
  )
)
2023-11-17 21:54:38,699 - trnsize: 124033
2023-11-17 21:54:38,700 - devsize: 538
2023-11-17 21:54:38,701 - tstsize: 538
2023-11-17 21:54:38,702 - 
2023-11-17 21:54:38,702 - #epc: 0
2023-11-17 21:54:38,704 - epc:0, epc_KL:  0.000000
2023-11-17 21:55:35,238 - exact_match_tst_copy_acc: 0.054
2023-11-17 21:55:36,509 - TRN || epcloss: 1.6091
…
