…
2023-11-19 17:27:55,486 - seen_tst_taglist: 504
2023-11-19 17:28:01,752 - trnID: v2_BITrue_2x10_UtrNOUN_zLEM150_zTAG128_decnh512_kl1.0_epc10_strt5_decdo0.2_inpemb64_bsize64
2023-11-19 17:28:01,752 - batchsize: 64
2023-11-19 17:28:01,753 - epochs: 200
2023-11-19 17:28:01,753 - lr: 0.00050
2023-11-19 17:28:01,754 - KL_WEIGHT: 1.00000
2023-11-19 17:28:01,755 - opt: Adam (
Parameter Group 0
    amsgrad: False
    betas: (0.5, 0.999)
    capturable: False
    eps: 1e-08
    foreach: None
    lr: 0.0005
    maximize: False
    weight_decay: 0
)
2023-11-19 17:28:01,756 - VQVAE(
  (encoder): Encoder_GRU_VQVAE(
    (layers): ModuleList(
      (0): Embedding(63, 64)
      (1): Dropout(p=0.0, inplace=False)
      (2): GRU(64, 256, batch_first=True, bidirectional=True)
    )
  )
  (z_linears): ModuleList(
    (0): Linear(in_features=256, out_features=128, bias=True)
    (1): Linear(in_features=256, out_features=128, bias=True)
  )
  (quantizers): ModuleList(
    (0): Quantizer(
      (embeddings): Embedding(10, 128)
    )
    (1): Quantizer(
      (embeddings): Embedding(10, 128)
    )
  )
  (z_lemma_mu): Linear(in_features=256, out_features=150, bias=True)
  (z_lemma_logvar): Linear(in_features=256, out_features=150, bias=True)
  (up_from_z_layer): Linear(in_features=278, out_features=512, bias=True)
  (decoder): Decoder_GRU_VQVAE(
    (layers): ModuleList(
      (0): Embedding(63, 64)
      (1): Dropout(p=0.2, inplace=False)
      (2): GRU(342, 512, batch_first=True)
      (3): Linear(in_features=512, out_features=63, bias=True)
    )
    (loss): CrossEntropyLoss()
  )
)
2023-11-19 17:28:01,848 - trnsize: 124033
2023-11-19 17:28:01,849 - devsize: 538
2023-11-19 17:28:01,850 - tstsize: 538
2023-11-19 17:28:01,850 - 
2023-11-19 17:28:01,851 - #epc: 0
2023-11-19 17:28:01,853 - epc:0, epc_KL:  0.000000
2023-11-19 17:29:26,019 - exact_match_tst_copy_acc: 0.818
2023-11-19 17:29:27,413 - TRN || epcloss: 0.6722
…
