…
2023-12-12 17:09:02,175 - seen_tst_taglist: 1446
2023-12-12 17:09:27,616 - trnID: run1_4x16_zLEM100_zTAG128_decnh1024_kl1.0_epc10_strt5_decdo0.2_inpemb128_bsize64
2023-12-12 17:09:27,617 - batchsize: 64
2023-12-12 17:09:27,618 - epochs: 100
2023-12-12 17:09:27,620 - lr: 0.00050
2023-12-12 17:09:27,621 - KL_WEIGHT: 1.00000
2023-12-12 17:09:27,622 - opt: Adam (
Parameter Group 0
    amsgrad: False
    betas: (0.5, 0.999)
    capturable: False
    eps: 1e-08
    foreach: None
    lr: 0.0005
    maximize: False
    weight_decay: 0
)
2023-12-12 17:09:27,623 - VQVAE(
  (encoder): Encoder_GRU_VQVAE(
    (layers): ModuleList(
      (0): Embedding(39, 128)
      (1): Dropout(p=0.0, inplace=False)
      (2): GRU(128, 256, batch_first=True, bidirectional=True)
    )
  )
  (z_linears): ModuleList(
    (0): Linear(in_features=256, out_features=128, bias=True)
    (1): Linear(in_features=256, out_features=128, bias=True)
    (2): Linear(in_features=256, out_features=128, bias=True)
    (3): Linear(in_features=256, out_features=128, bias=True)
  )
  (quantizers): ModuleList(
    (0): Quantizer(
      (embeddings): Embedding(16, 128)
    )
    (1): Quantizer(
      (embeddings): Embedding(16, 128)
    )
    (2): Quantizer(
      (embeddings): Embedding(16, 128)
    )
    (3): Quantizer(
      (embeddings): Embedding(16, 128)
    )
  )
  (z_lemma_mu): Linear(in_features=256, out_features=100, bias=True)
  (z_lemma_logvar): Linear(in_features=256, out_features=100, bias=True)
  (up_from_z_layer): Linear(in_features=228, out_features=1024, bias=True)
  (decoder): Decoder_GRU_VQVAE(
    (layers): ModuleList(
      (0): Embedding(39, 128)
      (1): Dropout(p=0.2, inplace=False)
      (2): GRU(356, 1024, batch_first=True)
      (3): Linear(in_features=1024, out_features=39, bias=True)
    )
    (loss): CrossEntropyLoss()
  )
)
2023-12-12 17:09:27,825 - trnsize: 404897
2023-12-12 17:09:27,826 - devsize: 1446
2023-12-12 17:09:27,827 - tstsize: 1446
2023-12-12 17:09:27,828 - 
2023-12-12 17:09:27,829 - #epc: 0
2023-12-12 17:09:27,835 - epc:0, epc_KL:  0.000000
2023-12-12 17:17:42,553 - exact_match_tst_copy_acc: 0.994
2023-12-12 17:17:42,555 - exact_match_tst_reinflection_wlemma: 0.048
…
