…
2024-01-19 09:19:47,169 - seen_tst_taglist: 1446
2024-01-19 09:20:10,432 - trnID: run3_6x6_zLEM100_zTAG128_decnh1024_kl0.5_epc10_strt5_decdo0.2_inpemb128_bsize64
2024-01-19 09:20:10,434 - batchsize: 64
2024-01-19 09:20:10,435 - epochs: 50
2024-01-19 09:20:10,436 - lr: 0.00050
2024-01-19 09:20:10,436 - KL_WEIGHT: 0.50000
2024-01-19 09:20:10,437 - opt: Adam (
Parameter Group 0
    amsgrad: False
    betas: (0.5, 0.999)
    capturable: False
    eps: 1e-08
    foreach: None
    lr: 0.0005
    maximize: False
    weight_decay: 0
)
2024-01-19 09:20:10,439 - VQVAE(
  (encoder): Encoder_GRU_VQVAE(
    (layers): ModuleList(
      (0): Embedding(39, 128)
      (1): Dropout(p=0.0, inplace=False)
      (2): GRU(128, 256, batch_first=True, bidirectional=True)
    )
  )
  (z_linears): ModuleList(
    (0): Linear(in_features=512, out_features=128, bias=True)
    (1): Linear(in_features=512, out_features=128, bias=True)
    (2): Linear(in_features=512, out_features=128, bias=True)
    (3): Linear(in_features=512, out_features=128, bias=True)
    (4): Linear(in_features=512, out_features=128, bias=True)
    (5): Linear(in_features=512, out_features=128, bias=True)
  )
  (quantizers): ModuleList(
    (0): Quantizer(
      (embeddings): Embedding(6, 128)
    )
    (1): Quantizer(
      (embeddings): Embedding(6, 128)
    )
    (2): Quantizer(
      (embeddings): Embedding(6, 128)
    )
    (3): Quantizer(
      (embeddings): Embedding(6, 128)
    )
    (4): Quantizer(
      (embeddings): Embedding(6, 128)
    )
    (5): Quantizer(
      (embeddings): Embedding(6, 128)
    )
  )
  (z_lemma_mu): Linear(in_features=512, out_features=100, bias=True)
  (z_lemma_logvar): Linear(in_features=512, out_features=100, bias=True)
  (up_from_z_layer): Linear(in_features=228, out_features=1024, bias=True)
  (decoder): Decoder_GRU_VQVAE(
    (layers): ModuleList(
      (0): Embedding(39, 128)
      (1): Dropout(p=0.2, inplace=False)
      (2): GRU(356, 1024, batch_first=True)
      (3): Linear(in_features=1024, out_features=39, bias=True)
    )
    (loss): CrossEntropyLoss()
  )
)
2024-01-19 09:20:10,575 - trnsize: 404897
2024-01-19 09:20:10,576 - devsize: 1446
2024-01-19 09:20:10,577 - tstsize: 1446
2024-01-19 09:20:10,578 - 
2024-01-19 09:20:10,579 - #epc: 0
2024-01-19 09:20:10,582 - epc:0, epc_KL:  0.000000
2024-01-19 09:26:57,808 - exact_match_tst_copy_acc: 0.993
2024-01-19 09:26:57,809 - exact_match_tst_reinflection_wlemma: 0.001
…
