…
2023-11-23 18:42:02,140 - trnID: LEMMASINC_SIL_v2_BITrue_2x10_UtrNOUN_zLEM100_zTAG128_decnh1024_kl1.0_epc10_strt5_decdo0.2_inpemb128_bsize64
2023-11-23 18:42:02,140 - batchsize: 64
2023-11-23 18:42:02,141 - epochs: 200
2023-11-23 18:42:02,142 - lr: 0.00050
2023-11-23 18:42:02,142 - KL_WEIGHT: 1.00000
2023-11-23 18:42:02,143 - opt: Adam (
Parameter Group 0
    amsgrad: False
    betas: (0.5, 0.999)
    capturable: False
    eps: 1e-08
    foreach: None
    lr: 0.0005
    maximize: False
    weight_decay: 0
)
2023-11-23 18:42:02,144 - VQVAE(
  (encoder): Encoder_GRU_VQVAE(
    (layers): ModuleList(
      (0): Embedding(63, 128)
      (1): Dropout(p=0.0, inplace=False)
      (2): GRU(128, 256, batch_first=True, bidirectional=True)
    )
  )
  (z_linears): ModuleList(
    (0): Linear(in_features=256, out_features=128, bias=True)
    (1): Linear(in_features=256, out_features=128, bias=True)
  )
  (quantizers): ModuleList(
    (0): Quantizer(
      (embeddings): Embedding(10, 128)
    )
    (1): Quantizer(
      (embeddings): Embedding(10, 128)
    )
  )
  (z_lemma_mu): Linear(in_features=256, out_features=100, bias=True)
  (z_lemma_logvar): Linear(in_features=256, out_features=100, bias=True)
  (up_from_z_layer): Linear(in_features=228, out_features=1024, bias=True)
  (decoder): Decoder_GRU_VQVAE(
    (layers): ModuleList(
      (0): Embedding(63, 128)
      (1): Dropout(p=0.2, inplace=False)
      (2): GRU(356, 1024, batch_first=True)
      (3): Linear(in_features=1024, out_features=63, bias=True)
    )
    (loss): CrossEntropyLoss()
  )
)
2023-11-23 18:42:02,211 - trnsize: 126840
2023-11-23 18:42:02,212 - devsize: 538
2023-11-23 18:42:02,213 - tstsize: 538
2023-11-23 18:42:02,214 - 
2023-11-23 18:42:02,214 - #epc: 0
2023-11-23 18:42:02,216 - epc:0, epc_KL:  0.000000
2023-11-23 18:43:33,565 - exact_match_tst_copy_acc: 0.732
2023-11-23 18:43:33,566 - exact_match_tst_reinflection_wlemma: 0.045
…
