…
2024-01-17 17:41:39,819 - seen_tst_lemma: 1446
2024-01-17 17:41:39,820 - seen_tst_taglist: 1446
2024-01-17 17:42:21,270 - trnID: run2_4x8_zLEM100_zTAG128_decnh256_klmax0.5_decdo0.4_inpemb300_bsize32_mintau0.5_TAU_soft
2024-01-17 17:42:21,271 - batchsize: 32
2024-01-17 17:42:21,272 - epochs: 30
2024-01-17 17:42:21,272 - lr: 0.00050
2024-01-17 17:42:21,273 - KL_MAX: 0.50000
2024-01-17 17:42:21,274 - opt: Adam (
Parameter Group 0
    amsgrad: False
    betas: (0.5, 0.999)
    capturable: False
    eps: 1e-08
    foreach: None
    lr: 0.0005
    maximize: False
    weight_decay: 0
)
2024-01-17 17:42:21,275 - MSVAE(
  (embed): Embedding(39, 300)
  (z_to_dec): Linear(in_features=100, out_features=256, bias=True)
  (tag_to_dec): Linear(in_features=128, out_features=256, bias=True)
  (encoder): MSVED_Encoder(
    (embed): Embedding(39, 300)
    (gru): GRU(300, 256, batch_first=True, bidirectional=True)
    (dropout_in): Dropout(p=0.0, inplace=False)
    (linear): Linear(in_features=512, out_features=200, bias=True)
  )
  (decoder): MSVED_Decoder(
    (char_embed): Embedding(39, 300)
    (dropout_in): Dropout(p=0.4, inplace=False)
    (gru): GRU(528, 256, batch_first=True)
    (attn): Linear(in_features=656, out_features=4, bias=True)
    (attn_combine): Linear(in_features=528, out_features=528, bias=True)
    (pred_linear): Linear(in_features=256, out_features=39, bias=True)
    (loss): CrossEntropyLoss()
  )
  (tag_embeddings): ModuleList(
    (0): Embedding(8, 128)
    (1): Embedding(8, 128)
    (2): Embedding(8, 128)
    (3): Embedding(8, 128)
  )
  (classifiers): ModuleList(
    (0): Linear(in_features=512, out_features=8, bias=True)
    (1): Linear(in_features=512, out_features=8, bias=True)
    (2): Linear(in_features=512, out_features=8, bias=True)
    (3): Linear(in_features=512, out_features=8, bias=True)
  )
)
2024-01-17 17:42:21,927 - trnsize: 404897
2024-01-17 17:42:21,928 - devsize: 1446
2024-01-17 17:42:21,929 - tstsize: 1446
2024-01-17 17:42:21,930 - 
2024-01-17 17:42:21,931 - #epc: 0
2024-01-17 17:57:18,086 - epoch: 0, kl_weight: 0.07, tmp: 0.70
2024-01-17 17:57:18,088 - Trn--- loss: 8.7195,  labeled_recon_loss: 0.3814, labeled_kl_loss: 63.9853, labeled_reinflect_recon_acc: 0.8708
…
