…
2023-11-17 20:47:10,570 - seen_tst_taglist: 504
2023-11-17 20:47:16,225 - trnID: 3x10_UtrNOUN_zLEM16_zTAG64_decnh256_kl0.1_epc10_strt5_decdo0.2_inpemb64_bsize128
2023-11-17 20:47:16,226 - batchsize: 128
2023-11-17 20:47:16,227 - epochs: 200
2023-11-17 20:47:16,227 - lr: 0.00050
2023-11-17 20:47:16,228 - KL_WEIGHT: 0.10000
2023-11-17 20:47:16,228 - opt: Adam (
Parameter Group 0
    amsgrad: False
    betas: (0.5, 0.999)
    capturable: False
    eps: 1e-08
    foreach: None
    lr: 0.0005
    maximize: False
    weight_decay: 0
)
2023-11-17 20:47:16,229 - VQVAE(
  (encoder): Encoder_GRU_VQVAE(
    (layers): ModuleList(
      (0): Embedding(63, 64)
      (1): Dropout(p=0.0, inplace=False)
      (2): GRU(64, 256, batch_first=True, bidirectional=True)
    )
  )
  (z_linears): ModuleList(
    (0): Linear(in_features=512, out_features=64, bias=True)
    (1): Linear(in_features=512, out_features=64, bias=True)
    (2): Linear(in_features=512, out_features=64, bias=True)
  )
  (quantizers): ModuleList(
    (0): Quantizer(
      (embeddings): Embedding(10, 64)
    )
    (1): Quantizer(
      (embeddings): Embedding(10, 64)
    )
    (2): Quantizer(
      (embeddings): Embedding(10, 64)
    )
  )
  (z_lemma_mu): Linear(in_features=512, out_features=16, bias=True)
  (z_lemma_logvar): Linear(in_features=512, out_features=16, bias=True)
  (up_from_z_layer): Linear(in_features=80, out_features=256, bias=True)
  (decoder): Decoder_GRU_VQVAE(
    (layers): ModuleList(
      (0): Embedding(63, 64)
      (1): Dropout(p=0.2, inplace=False)
      (2): GRU(144, 256, batch_first=True)
      (3): Linear(in_features=256, out_features=63, bias=True)
    )
    (loss): CrossEntropyLoss()
  )
)
2023-11-17 20:47:16,353 - trnsize: 124033
2023-11-17 20:47:16,354 - devsize: 538
2023-11-17 20:47:16,355 - tstsize: 538
2023-11-17 20:47:16,355 - 
2023-11-17 20:47:16,356 - #epc: 0
2023-11-17 20:47:16,357 - epc:0, epc_KL:  0.000000
2023-11-17 20:48:31,108 - exact_match_tst_copy_acc: 0.040
2023-11-17 20:48:32,420 - TRN || epcloss: 1.2816
…
