…
2023-11-19 20:44:12,569 - trnID: noshuffled_BITrue_2x10_UtrNOUN_zLEM100_zTAG128_decnh512_kl1.0_epc10_strt5_decdo0.2_inpemb128_bsize64
2023-11-19 20:44:12,570 - batchsize: 64
2023-11-19 20:44:12,570 - epochs: 200
2023-11-19 20:44:12,571 - lr: 0.00050
2023-11-19 20:44:12,572 - KL_WEIGHT: 1.00000
2023-11-19 20:44:12,572 - opt: Adam (
Parameter Group 0
    amsgrad: False
    betas: (0.5, 0.999)
    capturable: False
    eps: 1e-08
    foreach: None
    lr: 0.0005
    maximize: False
    weight_decay: 0
)
2023-11-19 20:44:12,573 - VQVAE(
  (encoder): Encoder_GRU_VQVAE(
    (layers): ModuleList(
      (0): Embedding(63, 128)
      (1): Dropout(p=0.0, inplace=False)
      (2): GRU(128, 256, batch_first=True, bidirectional=True)
    )
  )
  (z_linears): ModuleList(
    (0): Linear(in_features=256, out_features=128, bias=True)
    (1): Linear(in_features=256, out_features=128, bias=True)
  )
  (quantizers): ModuleList(
    (0): Quantizer(
      (embeddings): Embedding(10, 128)
    )
    (1): Quantizer(
      (embeddings): Embedding(10, 128)
    )
  )
  (z_lemma_mu): Linear(in_features=256, out_features=100, bias=True)
  (z_lemma_logvar): Linear(in_features=256, out_features=100, bias=True)
  (up_from_z_layer): Linear(in_features=228, out_features=512, bias=True)
  (decoder): Decoder_GRU_VQVAE(
    (layers): ModuleList(
      (0): Embedding(63, 128)
      (1): Dropout(p=0.2, inplace=False)
      (2): GRU(356, 512, batch_first=True)
      (3): Linear(in_features=512, out_features=63, bias=True)
    )
    (loss): CrossEntropyLoss()
  )
)
2023-11-19 20:44:12,675 - trnsize: 124033
2023-11-19 20:44:12,675 - devsize: 538
2023-11-19 20:44:12,676 - tstsize: 538
2023-11-19 20:44:12,677 - 
2023-11-19 20:44:12,677 - #epc: 0
2023-11-19 20:44:12,679 - epc:0, epc_KL:  0.000000
2023-11-19 20:45:39,531 - exact_match_tst_copy_acc: 0.447
2023-11-19 20:45:41,198 - TRN || epcloss: 0.8913
…
