…
2023-11-16 13:01:04,051 - seen_tst_taglist: 504
2023-11-16 13:01:10,673 - trnID: 2x10USUPtr_NOUN_512k_z32_decnh256_kl0.1_epc10_strt5_decdo0.2_inpemb64_bsize64
2023-11-16 13:01:10,673 - batchsize: 64
2023-11-16 13:01:10,674 - epochs: 200
2023-11-16 13:01:10,675 - lr: 0.00050
2023-11-16 13:01:10,675 - KL_WEIGHT: 0.10000
2023-11-16 13:01:10,676 - opt: Adam (
Parameter Group 0
    amsgrad: False
    betas: (0.5, 0.999)
    capturable: False
    eps: 1e-08
    foreach: None
    lr: 0.0005
    maximize: False
    weight_decay: 0
)
2023-11-16 13:01:10,677 - VQVAE(
  (encoder): Encoder_GRU_VQVAE(
    (layers): ModuleList(
      (0): Embedding(63, 64)
      (1): Dropout(p=0.0, inplace=False)
      (2): GRU(64, 256, batch_first=True, bidirectional=True)
    )
  )
  (z_linears): ModuleList(
    (0): Linear(in_features=512, out_features=32, bias=True)
    (1): Linear(in_features=512, out_features=32, bias=True)
  )
  (quantizers): ModuleList(
    (0): Quantizer(
      (embeddings): Embedding(10, 32)
    )
    (1): Quantizer(
      (embeddings): Embedding(10, 32)
    )
  )
  (z_lemma_mu): Linear(in_features=512, out_features=32, bias=True)
  (z_lemma_logvar): Linear(in_features=512, out_features=32, bias=True)
  (up_from_z_layer): Linear(in_features=32, out_features=256, bias=True)
  (decoder): Decoder_GRU_VQVAE(
    (layers): ModuleList(
      (0): Embedding(63, 64)
      (1): Dropout(p=0.2, inplace=False)
      (2): GRU(128, 256, batch_first=True)
      (3): Linear(in_features=256, out_features=63, bias=True)
    )
    (loss): CrossEntropyLoss()
  )
)
2023-11-16 13:01:10,770 - trnsize: 124033
2023-11-16 13:01:10,771 - devsize: 538
2023-11-16 13:01:10,771 - tstsize: 538
2023-11-16 13:01:10,772 - 
2023-11-16 13:01:10,773 - #epc: 0
2023-11-16 13:01:10,774 - epc:0, epc_KL:  0.000000
2023-11-16 13:02:30,431 - exact_match_tst_copy_acc: 0.351
2023-11-16 13:02:31,999 - TRN || epcloss: 0.8465
…
