2023-02-20 03:54:11,038 - trnID: 5
2023-02-20 03:54:11,040 - batchsize: 64
2023-02-20 03:54:11,040 - epochs: 500
2023-02-20 03:54:11,041 - lr: 0.00050
2023-02-20 03:54:11,041 - opt: Adam (
Parameter Group 0
    amsgrad: False
    betas: (0.5, 0.999)
    capturable: False
    differentiable: False
    eps: 1e-08
    foreach: None
    fused: False
    lr: 0.0005
    maximize: False
    weight_decay: 0
)
2023-02-20 03:54:11,043 - VQVAE3(
  (encoder): Encoder_GRU_VQVAE3(
    (layers): ModuleList(
      (0): Embedding(51, 64)
      (1): Dropout(p=0.0, inplace=False)
      (2): GRU(64, 256, batch_first=True)
    )
  )
  (quantizers): ModuleList(
    (0): Quantizer3(
      (embeddings): Embedding(10, 32)
    )
    (1): Quantizer3(
      (embeddings): Embedding(10, 32)
    )
    (2): Quantizer3(
      (embeddings): Embedding(10, 32)
    )
    (3): Quantizer3(
      (embeddings): Embedding(10, 32)
    )
    (4): Quantizer3(
      (embeddings): Embedding(10, 32)
    )
    (5): Quantizer3(
      (embeddings): Embedding(10, 32)
    )
    (6): Quantizer3(
      (embeddings): Embedding(10, 32)
    )
    (7): Quantizer3(
      (embeddings): Embedding(10, 32)
    )
  )
  (decoder): Decoder_GRU_VQVAE3(
    (layers): ModuleList(
      (0): Embedding(51, 64)
      (1): Dropout(p=0.3, inplace=False)
      (2): GRU(320, 256, batch_first=True)
      (3): Linear(in_features=256, out_features=51, bias=True)
    )
    (loss): CrossEntropyLoss()
  )
)
2023-02-20 03:54:11,163 - trnsize: 14000
2023-02-20 03:54:11,164 - devsize: 1000
2023-02-20 03:54:11,164 - 
2023-02-20 03:54:11,165 - #epc: 0
2023-02-20 03:54:15,143 - TRN || epcloss: 2.3148
2023-02-20 03:54:15,144 -     || Q: 0.0856
2023-02-20 03:54:15,144 -     || Num_Q_indices 0: 6
2023-02-20 03:54:15,145 -     || Num_Q_indices 1: 6
…
