…
2023-12-22 05:51:00,080 - seen_tst_taglist: 1446
2023-12-22 05:51:23,532 - trnID: run3_6x12_zLEM100_zTAG128_decnh1024_kl0.5_epc10_strt5_decdo0.2_inpemb128_bsize64
2023-12-22 05:51:23,534 - batchsize: 64
2023-12-22 05:51:23,535 - epochs: 50
2023-12-22 05:51:23,536 - lr: 0.00050
2023-12-22 05:51:23,537 - KL_WEIGHT: 0.50000
2023-12-22 05:51:23,538 - opt: Adam (
Parameter Group 0
    amsgrad: False
    betas: (0.5, 0.999)
    capturable: False
    eps: 1e-08
    foreach: None
    lr: 0.0005
    maximize: False
    weight_decay: 0
)
2023-12-22 05:51:23,539 - VQVAE(
  (encoder): Encoder_GRU_VQVAE(
    (layers): ModuleList(
      (0): Embedding(39, 128)
      (1): Dropout(p=0.0, inplace=False)
      (2): GRU(128, 256, batch_first=True, bidirectional=True)
    )
  )
  (z_linears): ModuleList(
    (0): Linear(in_features=256, out_features=128, bias=True)
    (1): Linear(in_features=256, out_features=128, bias=True)
    (2): Linear(in_features=256, out_features=128, bias=True)
    (3): Linear(in_features=256, out_features=128, bias=True)
    (4): Linear(in_features=256, out_features=128, bias=True)
    (5): Linear(in_features=256, out_features=128, bias=True)
  )
  (quantizers): ModuleList(
    (0): Quantizer(
      (embeddings): Embedding(12, 128)
    )
    (1): Quantizer(
      (embeddings): Embedding(12, 128)
    )
    (2): Quantizer(
      (embeddings): Embedding(12, 128)
    )
    (3): Quantizer(
      (embeddings): Embedding(12, 128)
    )
    (4): Quantizer(
      (embeddings): Embedding(12, 128)
    )
    (5): Quantizer(
      (embeddings): Embedding(12, 128)
    )
  )
  (z_lemma_mu): Linear(in_features=256, out_features=100, bias=True)
  (z_lemma_logvar): Linear(in_features=256, out_features=100, bias=True)
  (up_from_z_layer): Linear(in_features=228, out_features=1024, bias=True)
  (decoder): Decoder_GRU_VQVAE(
    (layers): ModuleList(
      (0): Embedding(39, 128)
      (1): Dropout(p=0.2, inplace=False)
      (2): GRU(356, 1024, batch_first=True)
      (3): Linear(in_features=1024, out_features=39, bias=True)
    )
    (loss): CrossEntropyLoss()
  )
)
2023-12-22 05:51:23,840 - trnsize: 404897
2023-12-22 05:51:23,842 - devsize: 1446
2023-12-22 05:51:23,843 - tstsize: 1446
2023-12-22 05:51:23,844 - 
2023-12-22 05:51:23,845 - #epc: 0
2023-12-22 05:51:23,849 - epc:0, epc_KL:  0.000000
2023-12-22 05:58:13,557 - exact_match_tst_copy_acc: 0.990
2023-12-22 05:58:13,559 - exact_match_tst_reinflection_wlemma: 0.066
…
