…
2023-12-26 03:15:06,058 - seen_tst_taglist: 1446
2023-12-26 03:15:28,088 - trnID: run3_12x12_zLEM100_zTAG128_decnh1024_kl0.2_epc10_strt5_decdo0.2_inpemb128_bsize64
2023-12-26 03:15:28,089 - batchsize: 64
2023-12-26 03:15:28,090 - epochs: 50
2023-12-26 03:15:28,091 - lr: 0.00050
2023-12-26 03:15:28,092 - KL_WEIGHT: 0.20000
2023-12-26 03:15:28,094 - opt: Adam (
Parameter Group 0
    amsgrad: False
    betas: (0.5, 0.999)
    capturable: False
    eps: 1e-08
    foreach: None
    lr: 0.0005
    maximize: False
    weight_decay: 0
)
2023-12-26 03:15:28,095 - VQVAE(
  (encoder): Encoder_GRU_VQVAE(
    (layers): ModuleList(
      (0): Embedding(39, 128)
      (1): Dropout(p=0.0, inplace=False)
      (2): GRU(128, 256, batch_first=True, bidirectional=True)
    )
  )
  (z_linears): ModuleList(
    (0): Linear(in_features=256, out_features=128, bias=True)
    (1): Linear(in_features=256, out_features=128, bias=True)
    (2): Linear(in_features=256, out_features=128, bias=True)
    (3): Linear(in_features=256, out_features=128, bias=True)
    (4): Linear(in_features=256, out_features=128, bias=True)
    (5): Linear(in_features=256, out_features=128, bias=True)
    (6): Linear(in_features=256, out_features=128, bias=True)
    (7): Linear(in_features=256, out_features=128, bias=True)
    (8): Linear(in_features=256, out_features=128, bias=True)
    (9): Linear(in_features=256, out_features=128, bias=True)
    (10): Linear(in_features=256, out_features=128, bias=True)
    (11): Linear(in_features=256, out_features=128, bias=True)
  )
  (quantizers): ModuleList(
    (0): Quantizer(
      (embeddings): Embedding(12, 128)
    )
    (1): Quantizer(
      (embeddings): Embedding(12, 128)
    )
    (2): Quantizer(
      (embeddings): Embedding(12, 128)
    )
    (3): Quantizer(
      (embeddings): Embedding(12, 128)
    )
    (4): Quantizer(
      (embeddings): Embedding(12, 128)
    )
    (5): Quantizer(
      (embeddings): Embedding(12, 128)
    )
    (6): Quantizer(
      (embeddings): Embedding(12, 128)
    )
    (7): Quantizer(
      (embeddings): Embedding(12, 128)
    )
    (8): Quantizer(
      (embeddings): Embedding(12, 128)
    )
    (9): Quantizer(
      (embeddings): Embedding(12, 128)
    )
    (10): Quantizer(
      (embeddings): Embedding(12, 128)
    )
    (11): Quantizer(
      (embeddings): Embedding(12, 128)
    )
  )
  (z_lemma_mu): Linear(in_features=256, out_features=100, bias=True)
  (z_lemma_logvar): Linear(in_features=256, out_features=100, bias=True)
  (up_from_z_layer): Linear(in_features=228, out_features=1024, bias=True)
  (decoder): Decoder_GRU_VQVAE(
    (layers): ModuleList(
      (0): Embedding(39, 128)
      (1): Dropout(p=0.2, inplace=False)
      (2): GRU(356, 1024, batch_first=True)
      (3): Linear(in_features=1024, out_features=39, bias=True)
    )
    (loss): CrossEntropyLoss()
  )
)
2023-12-26 03:15:28,439 - trnsize: 404897
2023-12-26 03:15:28,440 - devsize: 1446
2023-12-26 03:15:28,441 - tstsize: 1446
2023-12-26 03:15:28,442 - 
2023-12-26 03:15:28,443 - #epc: 0
2023-12-26 03:15:28,449 - epc:0, epc_KL:  0.000000
2023-12-26 03:22:49,951 - exact_match_tst_copy_acc: 0.989
2023-12-26 03:22:49,953 - exact_match_tst_reinflection_wlemma: 0.138
…
