…
2023-11-16 14:57:53,284 - trnID: 2x10SIL_USUPtr_NOUN_512k_zLEMMA32_Z_TAG_NH16_decnh256_kl0.1_epc10_strt5_decdo0.2_inpemb64_bsize64
2023-11-16 14:57:53,285 - batchsize: 64
2023-11-16 14:57:53,286 - epochs: 200
2023-11-16 14:57:53,287 - lr: 0.00050
2023-11-16 14:57:53,287 - KL_WEIGHT: 0.10000
2023-11-16 14:57:53,288 - opt: Adam (
Parameter Group 0
    amsgrad: False
    betas: (0.5, 0.999)
    capturable: False
    eps: 1e-08
    foreach: None
    lr: 0.0005
    maximize: False
    weight_decay: 0
)
2023-11-16 14:57:53,289 - VQVAE(
  (encoder): Encoder_GRU_VQVAE(
    (layers): ModuleList(
      (0): Embedding(63, 64)
      (1): Dropout(p=0.0, inplace=False)
      (2): GRU(64, 256, batch_first=True, bidirectional=True)
    )
  )
  (z_linears): ModuleList(
    (0): Linear(in_features=512, out_features=16, bias=True)
    (1): Linear(in_features=512, out_features=16, bias=True)
  )
  (quantizers): ModuleList(
    (0): Quantizer(
      (embeddings): Embedding(10, 16)
    )
    (1): Quantizer(
      (embeddings): Embedding(10, 16)
    )
  )
  (z_lemma_mu): Linear(in_features=512, out_features=32, bias=True)
  (z_lemma_logvar): Linear(in_features=512, out_features=32, bias=True)
  (up_from_z_layer): Linear(in_features=48, out_features=256, bias=True)
  (decoder): Decoder_GRU_VQVAE(
    (layers): ModuleList(
      (0): Embedding(63, 64)
      (1): Dropout(p=0.2, inplace=False)
      (2): GRU(112, 256, batch_first=True)
      (3): Linear(in_features=256, out_features=63, bias=True)
    )
    (loss): CrossEntropyLoss()
  )
)
2023-11-16 14:57:53,407 - trnsize: 124033
2023-11-16 14:57:53,408 - devsize: 538
2023-11-16 14:57:53,408 - tstsize: 538
2023-11-16 14:57:53,409 - 
2023-11-16 14:57:53,409 - #epc: 0
2023-11-16 14:57:53,411 - epc:0, epc_KL:  0.000000
2023-11-16 14:58:56,461 - exact_match_tst_copy_acc: 0.611
2023-11-16 14:58:57,753 - TRN || epcloss: 0.9180
…
