…
2024-02-15 15:02:17,957 - seen_tst_taglist: 731
2024-02-15 15:02:20,900 - trnID: run10_6x8_zLEM100_zTAG128_decnh256_kl0.05_epc10_strt10_decdo0.1_inpemb128_bsize16
2024-02-15 15:02:20,901 - batchsize: 16
2024-02-15 15:02:20,902 - epochs: 500
2024-02-15 15:02:20,903 - lr: 0.00050
2024-02-15 15:02:20,903 - KL_WEIGHT: 0.05000
2024-02-15 15:02:20,904 - opt: Adam (
Parameter Group 0
    amsgrad: False
    betas: (0.5, 0.999)
    capturable: False
    eps: 1e-08
    foreach: None
    lr: 0.0005
    maximize: False
    weight_decay: 0
)
2024-02-15 15:02:20,905 - VQVAE(
  (encoder): Encoder_GRU_VQVAE(
    (layers): ModuleList(
      (0): Embedding(39, 128)
      (1): Dropout(p=0.0, inplace=False)
      (2): GRU(128, 256, batch_first=True, bidirectional=True)
    )
  )
  (z_linears): ModuleList(
    (0): Linear(in_features=256, out_features=128, bias=True)
    (1): Linear(in_features=256, out_features=128, bias=True)
    (2): Linear(in_features=256, out_features=128, bias=True)
    (3): Linear(in_features=256, out_features=128, bias=True)
    (4): Linear(in_features=256, out_features=128, bias=True)
    (5): Linear(in_features=256, out_features=128, bias=True)
  )
  (quantizers): ModuleList(
    (0): Quantizer(
      (embeddings): Embedding(8, 128)
    )
    (1): Quantizer(
      (embeddings): Embedding(8, 128)
    )
    (2): Quantizer(
      (embeddings): Embedding(8, 128)
    )
    (3): Quantizer(
      (embeddings): Embedding(8, 128)
    )
    (4): Quantizer(
      (embeddings): Embedding(8, 128)
    )
    (5): Quantizer(
      (embeddings): Embedding(8, 128)
    )
  )
  (z_lemma_mu): Linear(in_features=256, out_features=100, bias=True)
  (z_lemma_logvar): Linear(in_features=256, out_features=100, bias=True)
  (up_from_z_layer): Linear(in_features=228, out_features=256, bias=True)
  (decoder): Decoder_GRU_VQVAE(
    (layers): ModuleList(
      (0): Embedding(39, 128)
      (1): Dropout(p=0.1, inplace=False)
      (2): GRU(356, 256, batch_first=True)
      (3): Linear(in_features=256, out_features=39, bias=True)
    )
    (loss): CrossEntropyLoss()
  )
)
2024-02-15 15:02:20,926 - trnsize: 5860
2024-02-15 15:02:20,927 - devsize: 1446
2024-02-15 15:02:20,927 - tstsize: 1446
2024-02-15 15:02:20,928 - 
2024-02-15 15:02:20,929 - #epc: 0
2024-02-15 15:02:20,929 - epc:0, epc_KL:  0.000000
2024-02-15 15:03:25,434 - exact_match_tst_copy_acc: 0.004
2024-02-15 15:03:25,435 - exact_match_tst_reinflection_wlemma: 0.004
…
