…
2023-11-18 17:08:36,952 - seen_tst_taglist: 504
2023-11-18 17:08:43,445 - trnID: v2_BITrue_2x10_UtrNOUN_zLEM100_zTAG128_decnh350_kl0.1_epc10_strt5_decdo0.2_inpemb64_bsize64
2023-11-18 17:08:43,446 - batchsize: 64
2023-11-18 17:08:43,447 - epochs: 200
2023-11-18 17:08:43,447 - lr: 0.00050
2023-11-18 17:08:43,448 - KL_WEIGHT: 0.10000
2023-11-18 17:08:43,449 - opt: Adam (
Parameter Group 0
    amsgrad: False
    betas: (0.5, 0.999)
    capturable: False
    eps: 1e-08
    foreach: None
    lr: 0.0005
    maximize: False
    weight_decay: 0
)
2023-11-18 17:08:43,450 - VQVAE(
  (encoder): Encoder_GRU_VQVAE(
    (layers): ModuleList(
      (0): Embedding(63, 64)
      (1): Dropout(p=0.0, inplace=False)
      (2): GRU(64, 256, batch_first=True, bidirectional=True)
    )
  )
  (z_linears): ModuleList(
    (0): Linear(in_features=256, out_features=128, bias=True)
    (1): Linear(in_features=256, out_features=128, bias=True)
  )
  (quantizers): ModuleList(
    (0): Quantizer(
      (embeddings): Embedding(10, 128)
    )
    (1): Quantizer(
      (embeddings): Embedding(10, 128)
    )
  )
  (z_lemma_mu): Linear(in_features=256, out_features=100, bias=True)
  (z_lemma_logvar): Linear(in_features=256, out_features=100, bias=True)
  (up_from_z_layer): Linear(in_features=228, out_features=350, bias=True)
  (decoder): Decoder_GRU_VQVAE(
    (layers): ModuleList(
      (0): Embedding(63, 64)
      (1): Dropout(p=0.2, inplace=False)
      (2): GRU(292, 350, batch_first=True)
      (3): Linear(in_features=350, out_features=63, bias=True)
    )
    (loss): CrossEntropyLoss()
  )
)
2023-11-18 17:08:43,508 - trnsize: 124033
2023-11-18 17:08:43,509 - devsize: 538
2023-11-18 17:08:43,509 - tstsize: 538
2023-11-18 17:08:43,510 - 
2023-11-18 17:08:43,511 - #epc: 0
2023-11-18 17:08:43,512 - epc:0, epc_KL:  0.000000
2023-11-18 17:10:04,257 - exact_match_tst_copy_acc: 0.681
2023-11-18 17:10:05,702 - TRN || epcloss: 0.8579
…
