…
2023-11-17 22:19:18,517 - seen_tst_taglist: 504
2023-11-17 22:19:25,115 - trnID: BI_False_2x10_UtrNOUN_zLEM32_zTAG16_decnh256_kl0.1_epc10_strt5_decdo0.2_inpemb64_bsize64
2023-11-17 22:19:25,116 - batchsize: 64
2023-11-17 22:19:25,116 - epochs: 200
2023-11-17 22:19:25,117 - lr: 0.00050
2023-11-17 22:19:25,118 - KL_WEIGHT: 0.10000
2023-11-17 22:19:25,118 - opt: Adam (
Parameter Group 0
    amsgrad: False
    betas: (0.5, 0.999)
    capturable: False
    eps: 1e-08
    foreach: None
    lr: 0.0005
    maximize: False
    weight_decay: 0
)
2023-11-17 22:19:25,119 - VQVAE(
  (encoder): Encoder_GRU_VQVAE(
    (layers): ModuleList(
      (0): Embedding(63, 64)
      (1): Dropout(p=0.0, inplace=False)
      (2): GRU(64, 256, batch_first=True)
    )
  )
  (z_linears): ModuleList(
    (0): Linear(in_features=256, out_features=16, bias=True)
    (1): Linear(in_features=256, out_features=16, bias=True)
  )
  (quantizers): ModuleList(
    (0): Quantizer(
      (embeddings): Embedding(10, 16)
    )
    (1): Quantizer(
      (embeddings): Embedding(10, 16)
    )
  )
  (z_lemma_mu): Linear(in_features=256, out_features=32, bias=True)
  (z_lemma_logvar): Linear(in_features=256, out_features=32, bias=True)
  (up_from_z_layer): Linear(in_features=48, out_features=256, bias=True)
  (decoder): Decoder_GRU_VQVAE(
    (layers): ModuleList(
      (0): Embedding(63, 64)
      (1): Dropout(p=0.2, inplace=False)
      (2): GRU(112, 256, batch_first=True)
      (3): Linear(in_features=256, out_features=63, bias=True)
    )
    (loss): CrossEntropyLoss()
  )
)
2023-11-17 22:19:25,246 - trnsize: 124033
2023-11-17 22:19:25,247 - devsize: 538
2023-11-17 22:19:25,247 - tstsize: 538
2023-11-17 22:19:25,248 - 
2023-11-17 22:19:25,248 - #epc: 0
2023-11-17 22:19:25,250 - epc:0, epc_KL:  0.000000
2023-11-17 22:20:41,949 - exact_match_tst_copy_acc: 0.238
2023-11-17 22:20:43,266 - TRN || epcloss: 1.2539
…
