…
2023-12-14 11:05:41,699 - seen_tst_taglist: 1966
2023-12-14 11:06:25,204 - trnID: run1_6x8_zLEM100_zTAG128_decnh1024_kl1.0_epc10_strt5_decdo0.2_inpemb128_bsize64
2023-12-14 11:06:25,206 - batchsize: 64
2023-12-14 11:06:25,207 - epochs: 100
2023-12-14 11:06:25,208 - lr: 0.00050
2023-12-14 11:06:25,209 - KL_WEIGHT: 1.00000
2023-12-14 11:06:25,210 - opt: Adam (
Parameter Group 0
    amsgrad: False
    betas: (0.5, 0.999)
    capturable: False
    eps: 1e-08
    foreach: None
    lr: 0.0005
    maximize: False
    weight_decay: 0
)
2023-12-14 11:06:25,211 - VQVAE(
  (encoder): Encoder_GRU_VQVAE(
    (layers): ModuleList(
      (0): Embedding(63, 128)
      (1): Dropout(p=0.0, inplace=False)
      (2): GRU(128, 256, batch_first=True, bidirectional=True)
    )
  )
  (z_linears): ModuleList(
    (0): Linear(in_features=256, out_features=128, bias=True)
    (1): Linear(in_features=256, out_features=128, bias=True)
    (2): Linear(in_features=256, out_features=128, bias=True)
    (3): Linear(in_features=256, out_features=128, bias=True)
    (4): Linear(in_features=256, out_features=128, bias=True)
    (5): Linear(in_features=256, out_features=128, bias=True)
  )
  (quantizers): ModuleList(
    (0): Quantizer(
      (embeddings): Embedding(8, 128)
    )
    (1): Quantizer(
      (embeddings): Embedding(8, 128)
    )
    (2): Quantizer(
      (embeddings): Embedding(8, 128)
    )
    (3): Quantizer(
      (embeddings): Embedding(8, 128)
    )
    (4): Quantizer(
      (embeddings): Embedding(8, 128)
    )
    (5): Quantizer(
      (embeddings): Embedding(8, 128)
    )
  )
  (z_lemma_mu): Linear(in_features=256, out_features=100, bias=True)
  (z_lemma_logvar): Linear(in_features=256, out_features=100, bias=True)
  (up_from_z_layer): Linear(in_features=228, out_features=1024, bias=True)
  (decoder): Decoder_GRU_VQVAE(
    (layers): ModuleList(
      (0): Embedding(63, 128)
      (1): Dropout(p=0.2, inplace=False)
      (2): GRU(356, 1024, batch_first=True)
      (3): Linear(in_features=1024, out_features=63, bias=True)
    )
    (loss): CrossEntropyLoss()
  )
)
2023-12-14 11:06:25,475 - trnsize: 533708
2023-12-14 11:06:25,476 - devsize: 2000
2023-12-14 11:06:25,477 - tstsize: 2000
2023-12-14 11:06:25,478 - 
2023-12-14 11:06:25,479 - #epc: 0
2023-12-14 11:06:25,484 - epc:0, epc_KL:  0.000000
2023-12-14 11:16:25,754 - exact_match_tst_copy_acc: 0.973
2023-12-14 11:16:25,755 - exact_match_tst_reinflection_wlemma: 0.067
…
